data/08_reporting/nlc_with_param_learning/pinn_model.pth (torch, 18859 bytes, 9 tensors)

weight f4 [32, 1]
00000000: 5cf6 2a3f 5199 0a3e 3811 6abf 61c3 abbe
00000010: 219d 643f ac53 4b3f 7931 6cbe 854f 483f
00000020: d35f 37bf 3eef 66bf a8fe 48be 6afc 8dbe
00000030: 9fed c7be d1d7 513f 9f4b 1bbf 379e 553f
00000040: 2b28 f03e 4abf a23e 0362 a3be 682f 04bf
00000050: 933e 09be 58b4 1d3e 543a 2fbf 60f6 e0bd
00000060: ecdc 66bf 16f9 2d3e fbd0 d9be ca7b 563f
00000070: 1400 773e 0d6b 12bf 3add ddbd 99a4 11bf
0.66782165 0.13535048 -0.91432524 -0.335475 0.8930226 0.7942455 -0.23065747 0.7824634
-0.7163059 -0.90208805 -0.19628394 -0.2773164 -0.39048478 0.81969935 -0.60662264 0.8344454
0.46905646 0.31786567 -0.31910715 -0.51634836 -0.13402776 0.15400827 -0.68448377 -0.10984492
-0.9018085 0.1698955 -0.42542252 0.8378264 0.24121124 -0.57194597 -0.10833211 -0.5689178

bias f4 [32]
00000000: aca9 5a3f 50ab 74bf 3365 f93d 26e3 adbf
00000010: 65a5 c23f 6851 61be a57c 693f 7ca5 82bd
00000020: f03f babd b7a2 3f3e 07bd a13f 2f95 a83f
00000030: e2f4 d8be 145e aa3e e4cd bd3f c7fd 7e3f
00000040: cab2 9dbf 0530 cb3f a1ca 5e3f a101 613f
00000050: 8b4b 5abf 90a1 b6bf 2567 28be fc69 883f
00000060: 5036 ad3f 6c39 87bf dbe7 a9bf edc7 36bf
00000070: 01f4 873f ba37 3bbf b07e 873f 5371 82bf
0.8541515 -0.955739 0.12177505 -1.3584945 1.5206724 -0.2200371 0.9120582 -0.0637922
-0.09094226 0.18714415 1.2635812 1.3170527 -0.4237433 0.332749 1.4828458 0.99605983
-1.2320187 1.5874029 0.8702794 0.8789311 -0.8527152 -1.4268055 -0.16445597 1.0657344
1.35322 -1.0564399 -1.3273882 -0.7139881 1.0621339 -0.73131907 1.0585537 -1.0190834

weight f4 [32, 32]
00000000: e4d6 cabd f0e8 9abd a487 3c3c c3b2 f8bd
00000010: 6b5e 313e f110 443e 9c7c 253e d3a1 a8bd
00000020: 2f8c 11bb 18be 48be a509 933e 89a1 4d3e
00000030: f66b c3bd 41ae ef3d ad0e cf3d 2d79 8a3d
00000040: 3747 60bd c516 95bd 072e 3f3e 86f8 4e3d
00000050: 8c87 ac3d f837 a2be f7e6 7f3d 0110 0c3f
00000060: 0bd8 a2bd 2a1a 2fbe 4e61 d73d d707 1e3e
00000070: 47b8 7d3e 7b21 c73d 7dde 173f 58ba d73d
00000080: 5229 68bd ee3c f93b a152 823d 6c11 a1bd
00000090: 7517 e63d 4343 20bd edb1 7d3e ed5f 79bd
000000a0: 5142 bc3d 74e4 3cbc 10a8 b53e 3fb2 ae3e
000000b0: 63d5 acbd 60c8 6cbc 6257 853e 8821 0f3e
000000c0: 57cb f7bd 4d4b 9f3e 8a6e 603e 8687 c63c
000000d0: 50ec 11be a745 cabe 458b 29be a3db e03e
000000e0: 7244 533e 1ac8 fcbb 71bf 74be ddec 413b
000000f0: d32a dc3d 174e 363d 979b ac3e 036e 863d
00000100: be4b 18be b69c 803e e884 873d 4e53 633e
00000110: 390d eabd 4783 24be b53e 90be 3073 97bc
00000120: e8fa ddbd 1b2f 0bbc 83cf 86be ab54 9fbe
00000130: 1951 5dbc 9464 03be a696 1f3d 262b 60bd
00000140: e7fd e53d 51c5 21be f13f 18bd ffef 49bd
00000150: 539c 673e b7c7 a93e 59c2 9bbd 0696 e7be
00000160: 97ed 08be e52d acbc 8cc9 083d 0592 d33d
00000170: 89e9 64be 794f c4bd 3aad 1fbe 13a0 12bd
00000180: 09a0 bebd beb1 a33d 7b73 01be 52bf 27bd
00000190: cd64 ed3d f424 b73d f494 3dbd c79b 2dbe
000001a0: 5194 00bd c2b4 e13d b9ef 303e b9cf 433e
000001b0: 0d00 9b3c ae16 23be adfe 613e fcb0 e23d
000001c0: 3f7b ae3d abbb 333e 2202 6b3e 268a 533c
000001d0: 7775 b43d b7e8 4dbe f5a5 5bbd 6922 803e
000001e0: 1311 6e3d 42c7 0ebe 3f0b 5a3d b7c3 db3b
000001f0: dc7f 1ebe 1b00 64bd 23f3 c83e 6255 323d
00000200: e21c ad3d 7d32 c4be 2690 b9be e62e 29bd
00000210: e6fc 153d a8f4 aabd 1001 8e3c f07b 23be
00000220: 6bcd 1f3d abd8 66be 25f8 9a3e 82e5 743e
00000230: 07a8 023e eba6 dcbd 07c8 2dbf 4ffd 2e3e
00000240: 4b06 0cbe 7b0f 4e3e 3a7d 35bf ba08 32be
00000250: 039e 87be a520 15bf 23f8 b33d 0eea 1e3f
00000260: 3547 0ebe 8074 7fbe ee76 983b be7a e23c
00000270: 2afb 8a3e 1276 d7bd 6c5e 303f ec25 07bd
00000280: 2bb2 d4bc ff2b 1cbe bc07 be3d 685d 4b3d
00000290: d135 e7bd 4452 e53d 3ada 4e3e fd79 783d
000002a0: c2d7 c23d 7e64 563d ed54 983e 2ba6 2a3e
000002b0: 2520 52be 1f41 293e 7d72 233e b833 1d3e
000002c0: 4412 4fbd 105d 993e 8afd 543e db80 82bb
000002d0: daec acbd c82f 09be 6dfe d03d 9ae0 8a3e
000002e0: 7d79 933e 2219 2dbe d306 2fbe 23c8 e8bd
000002f0: 982b 073e 8645 b83d 8066 fc3e 74b0 1abc
00000300: ab45 463e a5ac 40bd edf0 3ebe 2845 ad3b
00000310: 3b05 a7bd ca48 c73d 0d60 3dbe 2a59 c7bd
00000320: f645 85bd 1779 0dbd 3559 a7be be43 89be
00000330: 5a76 813d c0f4 083d 789f 20bd 2710 01be
00000340: c833 93bd 9fdc 1fbe 5aa3 55bd 4b73 a4bd
00000350: e289 0abe 7af2 d83d e0e3 e9bd 813e b6be
00000360: 56b9 7abe ccba 113e 2113 e7bb 252f d43b
00000370: fd4f 153c 2c3f a3bd 5fbf d0be e960 993c
00000380: 93d5 973c 4ca1 453e f1d4 363e 27b7 1f3e
00000390: 462b cb3d 021d 27be 7d6f 38be 4cbb 28bd
000003a0: 6c22 2dbe 8973 7ebd ff01 edba 1a43 2fbe
000003b0: c241 213d d2fc e13d e5e6 3d3d 62d3 4fbe
000003c0: 7ab1 683d 8cbb 81be 1e50 233e a7e3 e9bd
000003d0: 5f92 b1bd b4f7 993e 74f8 61ba 0d61 a2bd
000003e0: 7f86 aa3d 93c7 febd 5703 e23c 62b2 b6bd
000003f0: a920 15be 8ee4 ffbc c78a 8cbe aa42 313e
-0.099042684 -0.075639606 0.011506949 -0.12143471 0.17321174 0.19147088 0.16160816 -0.082339905
-0.00222088 -0.19603765 0.28718296 0.20081152 -0.09542076 0.11703158 0.10110221 0.06761394
-0.054755416 -0.072797336 0.18669902 0.05052998 0.08424291 -0.31683326 0.062476125 0.5471192
-0.07951363 -0.17099825 0.10516606 0.15432678 0.24777327 0.09723183 0.59323865 0.10533589
-0.05668003 0.0076061403 0.063634165 -0.07864651 0.11234943 -0.039126646 0.24774905 -0.060882498
0.09192336 -0.011529077 0.35479784 0.34120366 -0.08439138 -0.01445207 0.2604323 0.13977635
-0.12099331 0.31112137 0.21917167 0.024234544 -0.14250302 -0.39506266 -0.16557033 0.4391757
0.20631579 -0.0077142837 -0.23901154 0.0029590644 0.107503556 0.044508066 0.33712456 0.06563952
-0.14872643 0.2511956 0.06617147 0.22199747 -0.11428303 -0.16065703 -0.28172842 -0.018487543
-0.10838872 -0.008495118 -0.26330194 -0.31119284 -0.013508105 -0.12831336 0.03896203 -0.05472865
0.11230069 -0.15797926 -0.037170354 -0.049301144 0.22618227 0.33160183 -0.07605428 -0.45231646
-0.13371883 -0.021017978 0.033395335 0.103305854 -0.22354712 -0.09585471 -0.15593424 -0.03579719
-0.09307868 0.07992886 -0.12641709 -0.04095394 0.11591492 0.08942595 -0.04628463 -0.16953956
-0.031391446 0.11020805 0.17278947 0.19122209 0.018920923 -0.1592662 0.22069807 0.11068913
0.08519601 0.17552058 0.22950032 0.012911355 0.08811467 -0.20108305 -0.053625066 0.25026253
0.058121752 -0.13943198 0.05323338 0.0067066806 -0.15478462 -0.055664163 0.39248 0.04353846
0.084527746 -0.3831977 -0.3624279 -0.04130449 0.036618136 -0.08347446 0.017334491 -0.15965247
0.03901426 -0.2254359 0.30267444 0.23915675 0.1275941 -0.107740246 -0.6788334 0.17088817
-0.13674276 0.20123093 -0.70894206 -0.17386141 -0.2648774 -0.58252937 0.08787563 0.6207589
-0.13894351 -0.24946785 0.0046528494 0.027646419 0.27144748 -0.10520567 0.68894076 -0.03299515
-0.025963863 -0.15251158 0.09278819 0.049649626 -0.112895615 0.111973315 0.20200434 0.060663212
0.09513809 0.05234193 0.29752293 0.1666495 -0.20520075 0.16528748 0.15961643 0.1535176
-0.05055453 0.29953814 0.20799842 -0.003982646 -0.08443613 -0.13397133 0.10204778 0.27124482
0.28803626 -0.16904119 -0.17092447 -0.11366298 0.13200223 0.089976355 0.4929695 -0.009441484
0.19362514 -0.047039647 -0.18646593 0.005287785 -0.081552945 0.0973068 -0.18493672 -0.097338036
-0.065074846 -0.03453931 -0.32685247 -0.26809496 0.06321402 0.033436537 -0.03921458 -0.12603818
-0.07187611 -0.15611504 -0.052157737 -0.08029803 -0.1352916 0.10593124 -0.11420417 -0.35594562
-0.24484763 0.14231414 -0.007051841 0.0064753466 0.009113309 -0.079710335 -0.40771005 0.018722968
0.018534457 0.19299811 0.17854668 0.15597211 0.09920363 -0.1631966 -0.1801128 -0.041194245
-0.16907662 -0.0621219 -0.001808226 -0.17115441 0.039369352 0.1103455 0.046362776 -0.2029548
0.05680988 -0.253384 0.15948531 -0.11420374 -0.08670496 0.30071795 -0.0008620091 -0.07928667
0.08326434 -0.124404095 0.027589483 -0.089207426 -0.1456324 -0.031236913 -0.2744963 0.17310587

bias f4 [32]
00000000: 70d4 c43e c21d db3e ff98 2abf 970f b63e
00000010: ade9 063f 889a 163f a334 dbbe f329 b0be
00000020: 86bc 3f3f 2c38 c3be 6354 15bf 1851 f53e
00000030: d96c d83e 1b84 1ebf c1d4 8cbd fdd4 11be
00000040: 8211 c33e ab4e cd3e 7b3d 223f b9fb 25bf
00000050: 1bee 28bf 6a8c 1d3f 0a64 153e c58c 093f
00000060: 5dd9 fe3e e65b 2abe 45fd c33e 6b8f ebbe
00000070: 5daf 183f c374 293f 15da 373f e924 113f
0.38443327 0.4279614 -0.66639704 0.3555877 0.5270031 0.58829546 -0.42813596 -0.34407005
0.7489704 -0.38128793 -0.5833189 0.47913432 0.42270544 -0.61920327 -0.06876517 -0.14241405
0.38099295 0.4009908 0.6337506 -0.64837223 -0.6598832 0.6154238 0.14588943 0.5373042
0.4977521 -0.16636619 0.38279167 -0.46007857 0.59642583 0.6619379 0.7181714 0.56696945

weight f4 [32, 32]
00000000: 357e 97bb 9b37 36bd 7e54 4dbe 242d 5b3d
00000010: c82a 403f 9668 433e 8567 013e beb0 b7bd
00000020: 0ba9 523e f2c6 46be b912 c7be 265e 6b3d
00000030: d165 c43b a0b0 64be 8a92 393e 4d0d 2dbd
00000040: 26c0 d1bd aab0 6d3e 08c8 003f 02d9 4dbd
00000050: 06c7 ac3d a4ec 2d3d 2075 e2bd 2c8d 5a3e
00000060: 0288 fa3d 8c32 d13d 581b 763d 4e04 9bbd
00000070: d721 7bbd 0e32 903e 5476 d63e 25fb 803d
00000080: 5d93 68bd 1e77 dc3d 2356 043a 6729 cebd
00000090: f541 1e3f e91e 703e 3a59 0b3e 07af 7dbe
000000a0: ade4 b03e bfdd 5bbe ab6a fdbd 8ceb a7bd
000000b0: ad01 2c3d 4e15 85bd de51 523e 524a 503c
000000c0: 5ddf 733d 8aa6 e23d c8d0 043e af0c b7be
000000d0: 5310 48bd 35aa 593e 089e 383e 4912 1d3c
000000e0: 530c c43d 7fc4 adbd be40 d23d 8f8c 3abe
000000f0: ecc2 123d b795 5a3e 9d36 ee3e 5d6d dc3d
00000100: f7ae 1ebe df3a 6ebe 3b6a 193e d050 46be
00000110: 7ca2 24bf 7c12 30be 76e3 1a3e 6216 8ebd
00000120: c2f2 6ebe 9ca6 843c 37e4 8d3e e0a4 4d3c
00000130: eeec 0f3d 9c42 b83e 0235 2bbe 34f3 fe3d
00000140: 229d c5bd a973 14be 3289 adbe 6b74 4a3e
00000150: ebc0 22bd 6f18 90bc cad3 fa3d 858f 23be
00000160: c663 15be 307d 293c 64bf 49be e9e7 213e
00000170: 7167 b4bd 5921 3abe e634 bebe 2fda 563d
00000180: dfcf 003e 55e1 3e3e 989a 52bd 88be e23d
00000190: 00e6 b73e 462b 403e 0e58 4abe 78a5 f9bd
000001a0: 0b30 483e 04eb 4ebe e9db 7cbe f152 163d
000001b0: a2be cabd cd7f 9bbe 82dd 0c3e 538e 0cbe
000001c0: b7b5 1a3e f8a6 65bc 84c2 853e c570 f3bd
000001d0: 0638 32be 288c c33c f488 fc3a 5708 863d
000001e0: 06e6 8d3d d449 eb3b a88b cf3d 9f16 e53d
000001f0: 9b34 e2bb 2c1f 8f3e 5537 c83e 2e70 873d
00000200: 0346 5b3d 6eb6 bf3d 3e75 41bc 51a1 8ebc
00000210: 4f9f 2dbf c3cf 5e3d f684 363e b92f 463e
00000220: 77ed 91be c62e 0d3d e656 b93c 67fc 963d
00000230: e7df 46be 8e88 903e e933 3dbe 400a 1fbe
00000240: ab84 4abe 861d f0bd 1552 f6be 16c1 91bc
00000250: 8441 1fbd e81d 1bbe 252a a4bd 9eff 893d
00000260: ae7b fc3b aef7 57bd edc0 4bbd cddf 153e
00000270: 2f95 0dbe b999 a3be c37d 29be 145a 47be
00000280: 2862 01be 9551 da3d 32c7 233e 0da3 113e
00000290: 138e bebe ef8b 4bbe f43c a03d 6e63 2d3e
000002a0: b6ff b0be 8895 4a3e 1461 df3d 7a4d 3dbc
000002b0: d4b6 e03d 2ae5 ae3e d7f3 67bd 72d9 c4bd
000002c0: 5d67 14bd eb94 2ebe 46b5 6dbe 652a bfbd
000002d0: 9531 e8bc c92a 6cbe 0838 a2bd 2f99 08be
000002e0: 8885 ff3d 6fe4 80be 8b3e 2fbd 78a8 133d
000002f0: 4532 f2bd 39e8 30be c742 11be 3d26 e9bc
00000300: 80bc 6dbd f1f5 6a3d 765b eebc fc36 253e
00000310: fd1a 6ebe 23fc dbbd 7783 c63d c2bd 1ebd
00000320: 71f6 2cbe cb33 173e 90ad f73c a68d 59bd
00000330: caf1 433c efb0 4bbc a3a2 22be cb63 f33d
00000340: 51a0 b53d f146 1b3e 012d 9dbd 6a42 123e
00000350: d50a c5bd cd3d 9c3c 3bb9 ddbc 58c9 febd
00000360: f98e 6b3d f2e9 0fbe a3ab 69bd 1cbd 363e
00000370: 6aec 11bd 016d 0f3d d692 5c3d 85d8 893d
00000380: 3e49 a93d 6391 e63d 0efa 49be a858 673d
00000390: df01 943e 902d 1b3e 83fd 693c 5dc3 863d
000003a0: f527 da3e 0981 613d f91c f9bd 78cc 253e
000003b0: b395 bbbd 50eb 9abe e6b5 6b3e 99fc e53d
000003c0: 78e4 2a3e 5fe8 70bd 2799 b03e 8008 c43b
000003d0: 7f79 463c c729 4ebc ce43 013d 7374 9d3c
000003e0: 6448 0a3e 5065 533e a81e 393e a1ab 3bbe
000003f0: 8946 dc3d 096a a63e 1db1 d83e f68a a13c
-0.0046231993 -0.044486623 -0.20051762 0.053509846 0.7506528 0.19082865 0.12637146 -0.08969258
0.20572297 -0.19411829 -0.38881472 0.057462834 0.005993583 -0.22333002 0.18122306 -0.042249013
-0.102417275 0.23211923 0.50305223 -0.050255783 0.08436398 0.042462006 -0.11057496 0.21342915
0.12232973 0.10214719 0.06008467 -0.075691804 -0.06131157 0.2816319 0.41887152 0.06297902
-0.05678116 0.10764907 0.0005048236 -0.100664906 0.6181939 0.23449291 0.13608256 -0.24773799
0.34549466 -0.21471308 -0.12373861 -0.08199224 0.041993786 -0.06498204 0.20539042 0.012713032
0.059539188 0.11066921 0.12970269 -0.35751864 -0.048843693 0.21256335 0.18029034 0.009586879
0.09572663 -0.08484744 0.10266255 -0.18217681 0.035830423 0.21346174 0.46526042 0.10763047
-0.15496431 -0.23264645 0.1498193 -0.19366765 -0.6431043 -0.17194551 0.15125832 -0.06937863
-0.23334792 0.016192727 0.27713177 0.012551516 0.035138063 0.3598832 -0.1671944 0.12448731
-0.09649111 -0.14497246 -0.33893734 0.19770972 -0.039734762 -0.017589776 0.12247427 -0.15972717
-0.14588842 0.010344788 -0.19701916 0.15811123 -0.088087924 -0.18176784 -0.37149733 0.05245417
0.12579297 0.18640645 -0.051416963 0.11071497 0.35917664 0.18766508 -0.19760153 -0.12189764
0.19549577 -0.20206839 -0.24693264 0.036700193 -0.098996416 -0.30370942 0.13756374 -0.13726167
0.15108381 -0.014016859 0.26124966 -0.118867435 -0.17404184 0.023870543 0.001926689 0.065445594
0.06928639 0.007180432 0.10134059 0.11185955 -0.0069032437 0.2795347 0.39104715 0.066131935
0.053533565 0.093609676 -0.011807738 -0.017410906 -0.6782121 0.054397356 0.17824158 0.19354142
-0.28501484 0.034468435 0.022624444 0.07372361 -0.1942135 0.28229183 -0.18476833 -0.15531254
-0.19777171 -0.11724381 -0.481095 -0.017792266 -0.03888084 -0.15148127 -0.08015851 0.06738208
0.0077051735 -0.05272644 -0.049744535 0.14636154 -0.1382644 -0.3195322 -0.1655188 -0.19467956
-0.126351 0.10660092 0.15993956 0.14222355 -0.3721777 -0.19877599 0.07824126 0.1693246
-0.34570092 0.19783604 0.10907188 -0.011554116 0.10972372 0.34159213 -0.05662903 -0.09611787
-0.036231387 -0.17048995 -0.23213682 -0.09334258 -0.028343955 -0.23063196 -0.07920843 -0.13339685
0.12476641 -0.2517428 -0.042784255 0.036049336 -0.118259944 -0.17276086 -0.1418563 -0.028460616
-0.058041096 0.057363454 -0.029096346 0.16134256 -0.23252483 -0.10741451 0.09693044 -0.038755186
-0.16890885 0.14765851 0.030234128 -0.053113602 0.0119595025 -0.012432321 -0.15882353 0.118842684
0.088684686 0.15163781 -0.076745994 0.14283147 -0.09621207 0.019072438 -0.027065864 -0.12440747
0.057509396 -0.14054087 -0.05704845 0.17845577 -0.035625853 0.035016064 0.05385097 0.06730751
0.08265923 0.11258199 -0.19724295 0.056481034 0.28907678 0.151541 0.014281633 0.06580231
0.4260861 0.0550547 -0.12163729 0.1619128 -0.09159412 -0.30257654 0.23018607 0.1122982
0.16688716 -0.058815356 0.34491846 0.0059824586 0.012113928 -0.012583203 0.031558804 0.019220566
0.13504177 0.20644116 0.180781 -0.1832719 0.10755641 0.32502773 0.42322627 0.019719582

bias f4 [32]
00000000: 908e 213f 3e36 7e3e cd2d b3be a913 d03e
00000010: 0812 dabd e3ea 9abe aaef cdbd dfdb e13e
00000020: 4755 ed3e e5a5 a03e aade cd3e 4baf 013f
00000030: 08d8 123f d0ed 113f c19d f43e 9ab0 46bc
00000040: 2596 9a3e dcbb 1f3f 4697 5f3b eed0 053f
00000050: 0c0d 243f 9b3c 303f 787c f2be 043e 10bf
00000060: 3902 263f 340d 99be bfda e13e c0ad 8e3e
00000070: 9dcf b93e 7e29 bc3c 5971 c1be bde0 043f
0.6310816 0.24825379 -0.3499588 0.4064 -0.106479704 -0.3025733 -0.10055478 0.4411306
0.46354124 0.31376567 0.40208942 0.506581 0.5736089 0.570035 0.47776607 -0.012127066
0.30192676 0.62396026 0.0034117266 0.52271926 0.6408241 0.68842477 -0.47360587 -0.5634463
0.6484714 -0.29892886 0.44112203 0.27866936 0.3629121 0.022969004 -0.3778179 0.51905423

weight f4 [32, 32]
00000000: dec7 dabd 46f1 d8bd 6457 85bd 466e 8bbd
00000010: 52d8 973d 3574 213e 79ed 5c3d 966c 583d
00000020: b769 1abc 9d71 133e 4ded 1dbe eda1 0b3e
00000030: 1496 3abe f967 e3bd 1c06 ccbc b4dd a23d
00000040: 3893 80bd 7be2 50bd fae4 f93c d6f2 69bd
00000050: ee96 98be 6c92 17bd 1bf7 90bc 4cb9 973e
00000060: 3429 b7be 5878 d83d 4c93 f5bc b80f 30be
00000070: b976 c1bd a039 48bd b1f7 da3d c2f1 72bd
00000080: 465f f0ba 7a8d 85be c636 b43d 446a 393d
00000090: fd4c 333e 63e6 4f3e cf36 5a3b dd69 8cbd
000000a0: e68b 91bd ac79 e8bd a56a 09bd 65ff f3bd
000000b0: d800 8bbe 7fad 3dbe 88f9 aabd b7bf c9bc
000000c0: 0798 41bd 4bb9 6ebe 5449 303b eeed f4be
000000d0: 11a4 99be 960e 5abe 9c7b fc3d cab6 923e
000000e0: 0434 cabe 9f80 483d e8f8 913d 833c 8d3c
000000f0: 5527 35be 27a6 953b 26ac 25be 828c a5be
00000100: d4ea 1bbd f797 843e f594 833c 1ac2 953e
00000110: af39 fa3d d3c2 eebc 5df2 433d 747e 043e
00000120: f1c3 0d3c f6e7 ba3d 0e30 2d3d 9f3d 053e
00000130: e9b9 1c3c e98a a6bb 1e50 15bd c183 3fbe
00000140: ec57 9f3d 0196 d43d 6190 02be 0ff6 253e
00000150: 68ed babd 38be 9a3c 670c 35be a52f 753e
00000160: 94b7 b6be 5cfd 41be de2b 023e c651 2f3e
00000170: e420 2f3d 8a62 12be 537b ef3c 8c44 80bf
00000180: 0d51 153e 317a 353e 7115 0bbe 51d3 6d3d
00000190: 61e1 0fbe 38a5 d9bd 037d bebd c7e4 053e
000001a0: 245e 8b3e 8d45 4c3e 8444 173e cbd8 633e
000001b0: fff9 023e c166 2f3e 8605 413d d7b6 36be
000001c0: d42d 623d e56b 3a3e 1caf fdbc 1b12 c03e
000001d0: bc06 4f3e bce1 063e 1129 d9bd 10fc 02be
000001e0: f024 d83e 635f 10bd 699d e6bc 204a 823e
000001f0: 8f69 6f3e c625 c73c 329b 08be e704 983e
00000200: 92b9 62be 1e70 c53c b644 cc3d bb47 f5bd
00000210: 9c01 48bd 58d8 083e 98f8 013e 0c83 3abe
00000220: 9b04 3ebe a2f5 c23d 0c86 f2bc 1640 40bd
00000230: 4190 2c3e d7ab 12be 10f6 fdbd 6665 0e3e
00000240: 7c7d 33bd d203 943b 440d 33bd 6641 0bbe
00000250: 2646 27bd 17de 3bbe 9aae 0a3e 8db2 b83d
00000260: 6093 9ebe 5299 e63d ac62 193d 4b4a 5cbd
00000270: 127d 143e 7d85 d83d 85c7 fdbb b180 d9bc
00000280: 2db0 713e c2cf 7b3e a3ee 7dbe e21b 42bd
00000290: bf53 07be 19b8 1839 b2ca e73d 6829 7e3e
000002a0: 5006 813d db83 013e 2979 be3c 1c39 22bd
000002b0: 0b08 523e bb47 ec3d 59bd bc3d 6301 d83c
000002c0: f79c 4d3e 8d44 fc3d f445 8ebc c8ec 813e
000002d0: ff42 933e 8c8e c63e 849c 21be c114 34be
000002e0: 97c9 793e 6281 82be 786b a33c 96ae 0d3e
000002f0: 0b9e 7f3e a95f cb3d 55a6 013e 3145 5e3e
00000300: 78ae 86bb 9df2 b53e eaa3 5abe e24e 673e
00000310: 769d b73d 2faa 00bc 2d2d 1b39 c28b 843e
00000320: c48b 9e3e bd09 ae3d 85f7 c63d b8c0 bfbc
00000330: a2b6 7c3e 5bce 2e3e e043 debc 18c0 83bd
00000340: da7a b7bd 53ab 563e 0f11 13bc 7431 a13e
00000350: 51c9 8f3e f124 063e ee98 45be bb4a 97be
00000360: 05ed e23e 539d 253d 3d3f 803e 9e12 4d3e
00000370: 2db5 1f3d ff3b d9bd 7351 34bd f19c cd3e
00000380: 5530 1a3e 8455 7a3e 96ae 3ebd f120 533e
00000390: 4d56 df3c 6aae 36bd 602f 6e3d f7ec 183e
000003a0: 65cf bb3e 2fa8 c3bc ffdf 643e c79c 1a3e
000003b0: 43b8 9c3d e716 363e 3599 c03c 7b5c f33d
000003c0: 01c8 c93d 9232 953e 600e b4bd 21ef ea3e
000003d0: 67fe 143e ec39 b83e 380a 143d c267 f1be
000003e0: 9551 da3e cdac 3abe d333 593d 8a16 8e3e
000003f0: c488 483a dfda bc3d 0b90 15be ada5 1a3e
-0.10682653 -0.10592894 -0.06510809 -0.06808142 0.07414307 0.15766986 0.05393741 0.05283793
-0.009424618 0.14398809 -0.15422554 0.13635989 -0.18221313 -0.111038156 -0.024905257 0.07952443
-0.0627808 -0.05099724 0.030504692 -0.057116352 -0.2980265 -0.037004873 -0.017695954 0.29633558
-0.35773623 0.10569829 -0.029977463 -0.17193496 -0.09446473 -0.04888308 0.10691775 -0.05931259
-0.001833894 -0.260845 0.0879951 0.04526736 0.17509837 0.2030273 0.0033296829 -0.06856129
-0.07106762 -0.11351332 -0.03354897 -0.11913947 -0.2714908 -0.18523215 -0.083483756 -0.02462755
-0.047264125 -0.23312871 0.0026899176 -0.47837776 -0.30007985 -0.21294627 0.12328264 0.28655082
-0.3949281 0.048950788 0.07127553 0.017240768 -0.17690785 0.004566926 -0.1617895 -0.3233376
-0.038065746 0.2589719 0.01606224 0.2924965 0.122180335 -0.029145634 0.047838558 0.12938863
0.008652673 0.09126274 0.042282157 0.13011788 0.009565809 -0.0050824773 -0.03645336 -0.18702604
0.07780442 0.103801735 -0.12750389 0.16207145 -0.09127313 0.018889531 -0.17680512 0.23943956
-0.35686934 -0.18944305 0.12712047 0.17121038 0.042755976 -0.14295402 0.02923361 -1.0020919
0.145817 0.17722394 -0.13582398 0.058062855 -0.14050819 -0.10627216 -0.09301188 0.13075553
0.2722026 0.19948407 0.1477223 0.22250669 0.12790678 0.17129041 0.04712441 -0.17843185
0.055219486 0.18205221 -0.030967288 0.37513813 0.20217413 0.13172048 -0.10603536 -0.12791467
0.4221568 -0.035247218 -0.02815123 0.25447178 0.23380111 0.024310004 -0.13340452 0.2969124
-0.22141102 0.024101313 0.09974043 -0.11976572 -0.04882966 0.13363779 0.12692487 -0.18214053
-0.18556444 0.09519507 -0.029604934 -0.046936117 0.16851903 -0.14323364 -0.12400448 0.13905868
-0.043820843 0.004517057 -0.043713823 -0.13599166 -0.040838383 -0.1834644 0.13543168 0.09018431
-0.30971813 0.11259712 0.037447616 -0.05378179 0.14500836 0.10572336 -0.007744732 -0.026550623
0.23602362 0.24590972 -0.24798064 -0.047389872 -0.1321554 0.00014564431 0.11317958 0.24820483
0.06300032 0.12647955 0.023251133 -0.039605245 0.2051088 0.11537119 0.09215803 0.026367849
0.20079409 0.123177625 -0.01736734 0.25375962 0.2876205 0.3878063 -0.15782362 -0.17586042
0.24393307 -0.25489336 0.019948706 0.1383613 0.24962632 0.09930355 0.12661107 0.21706082
-0.0041101538 0.35536662 -0.21351591 0.22588685 0.0896558 -0.007853075 0.00014798781 0.25887877
0.30966008 0.08497951 0.09715179 -0.023407325 0.24679044 0.17070906 -0.027131975 -0.06433123
-0.08958979 0.20963793 -0.008976235 0.31483042 0.2808328 0.1310003 -0.1929662 -0.29549202
0.44321457 0.04043324 0.25048247 0.20026633 0.038991142 -0.106071465 -0.04402299 0.401588
0.150575 0.24446684 -0.046553217 0.20618035 0.027262831 -0.044599928 0.05815065 0.14934145
0.36681667 -0.023883907 0.22351073 0.15098868 0.07652333 0.17782174 0.023510555 0.118828736
0.09852601 0.29140145 -0.08791804 0.45885566 0.14550172 0.3598169 0.036142558 -0.47149473
0.42640367 -0.18229981 0.05302794 0.2775157 0.0007649774 0.09221434 -0.1460573 0.15102263

bias f4 [32]
00000000: f701 f7bd 4939 d1be 290c d43c 3b4c ca3e
00000010: 6147 193b fd64 093f 2458 933e dfed 0a3f
00000020: 4ef4 fd3e 94ee bb3e afbe c0bd 6fd8 b83e
00000030: 769e da3e d878 683e 4834 59bd 2198 febe
00000040: 6613 b33e 1430 873d eb0f 6b3e 9e4d 21bd
00000050: 1d04 a13e 571c 6ebd 3d04 b1be 76d1 f1be
00000060: 15b9 ee3e 64da 8f3d 35db d13e 2146 db3e
00000070: e21f cb3e 8d15 3fbd b503 c33e c47f f73e
-0.12060922 -0.40864018 0.025884705 0.39511284 0.0023388492 0.5366972 0.28778183 0.5426921
0.49600452 0.36705458 -0.0941137 0.36102626 0.4269902 0.22702348 -0.053028375 -0.4972544
0.34975737 0.06600967 0.22955291 -0.039380662 0.3144845 -0.058132496 -0.34573546 -0.4723012
0.4662558 0.070240766 0.40987554 0.42826942 0.39672762 -0.04665141 0.38088766 0.48339665

weight f4 [1, 32]
00000000: c75a 37be ff6c 96be 966a aebe ca4a 983e
00000010: 852e f5bd 2600 453e 1586 503e 29f2 3b3e
00000020: 65d5 423e b603 903e 41ab efbe e585 8f3e
00000030: 2979 8b3e bf9c 4a3e 0feb 89be 317e b3be
00000040: 2977 303e cfd3 a5bd 5ef6 573e b2f1 e5be
00000050: 0241 2a3e ab23 0dbe 424f a5be c48b 9fbe
00000060: 7b91 ac3e 361f bfbd db8d 943e dfb6 6e3e
00000070: e35f 943e c526 d23c 919d 243e 7d8e 713e
-0.17905723 -0.29380032 -0.34065694 0.2974456 -0.119717635 0.19238338 0.20363648 0.18354096
0.19026716 0.2812783 -0.46810344 0.2803184 0.27240875 0.19786356 -0.26937148 -0.35057214
0.17232956 -0.0809704 0.21090075 -0.4491096 0.16626361 -0.13783138 -0.3228703 -0.3116132
0.33704743 -0.09332125 0.29014477 0.23311947 0.28979406 0.025653252 0.16075732 0.23589511
